InternVLChatModel(
  (vision_model): InternVisionModel(
    (embeddings): InternVisionEmbeddings(
      (patch_embedding): Conv2d(3, 1024, kernel_size=(14, 14), stride=(14, 14))
    )
    (encoder): InternVisionEncoder(
      (layers): ModuleList(
        (0-23): 24 x InternVisionEncoderLayer(
          (attn): InternAttention(
            (qkv): Linear(in_features=1024, out_features=3072, bias=True)
            (attn_drop): Dropout(p=0.0, inplace=False)
            (proj_drop): Dropout(p=0.0, inplace=False)
            (proj): Linear(in_features=1024, out_features=1024, bias=True)
          )
          (mlp): InternMLP(
            (act): GELUActivation()
            (fc1): Linear(in_features=1024, out_features=4096, bias=True)
            (fc2): Linear(in_features=4096, out_features=1024, bias=True)
          )
          (norm1): LayerNorm((1024,), eps=1e-06, elementwise_affine=True)
          (norm2): LayerNorm((1024,), eps=1e-06, elementwise_affine=True)
          (drop_path1): Identity()
          (drop_path2): Identity()
        )
      )
    )
  )
  (language_model): Qwen2ForCausalLM(
    (model): Qwen2Model(
      (embed_tokens): Embedding(151674, 896)
      (layers): ModuleList(
        (0-23): 24 x Qwen2DecoderLayer(
          (self_attn): Qwen2Attention(
            (q_proj): Linear(in_features=896, out_features=896, bias=True)
            (k_proj): Linear(in_features=896, out_features=128, bias=True)
            (v_proj): Linear(in_features=896, out_features=128, bias=True)
            (o_proj): Linear(in_features=896, out_features=896, bias=False)
            (rotary_emb): Qwen2RotaryEmbedding()
          )
          (mlp): Qwen2MLP(
            (gate_proj): Linear(in_features=896, out_features=4864, bias=False)
            (up_proj): Linear(in_features=896, out_features=4864, bias=False)
            (down_proj): Linear(in_features=4864, out_features=896, bias=False)
            (act_fn): SiLU()
          )
          (input_layernorm): Qwen2RMSNorm((896,), eps=1e-06)
          (post_attention_layernorm): Qwen2RMSNorm((896,), eps=1e-06)
        )
      )
      (norm): Qwen2RMSNorm((896,), eps=1e-06)
      (rotary_emb): Qwen2RotaryEmbedding()
    )
    (lm_head): Linear(in_features=896, out_features=151674, bias=False)
  )
  (mlp1): MLP1WithMoE(
    (mlp1): Sequential(
      (0): LayerNorm((4096,), eps=1e-05, elementwise_affine=True)
      (1): Linear(in_features=4096, out_features=896, bias=True)
      (2): GELU(approximate='none')
      (3): Linear(in_features=896, out_features=896, bias=True)
    )
    (moe): QueryConditionedMoE(
      (film): FiLMLayer(
        (mlp): Sequential(
          (0): Linear(in_features=896, out_features=1792, bias=True)
          (1): SiLU()
          (2): Linear(in_features=1792, out_features=1792, bias=True)
        )
      )
      (shared): ModuleList(
        (0): ExpertFFN(
          (w_up): Linear(in_features=896, out_features=3584, bias=False)
          (w_down): Linear(in_features=3584, out_features=896, bias=False)
          (act): GELUActivation()
        )
      )
      (router): QueryConditionedRouter(
        (gate): Linear(in_features=1792, out_features=8, bias=False)
      )
      (experts): ModuleList(
        (0-7): 8 x ExpertFFN(
          (w_up): Linear(in_features=896, out_features=896, bias=False)
          (w_down): Linear(in_features=896, out_features=896, bias=False)
          (act): GELUActivation()
        )
      )
      (norm): LayerNorm((896,), eps=1e-05, elementwise_affine=True)
      (dropout): Identity()
    )
  )
)